…
2018-06-13 07:35:31.207372: I tensorflow/core/common_runtime/gpu/gpu_device.cc:1120] Creating TensorFlow device (/device:GPU:0) -> (device: 0, name: GeForce GTX 1070 Ti, pci bus id: 0000:01:00.0, compute capability: 6.1)
float32
1e-07
tf
channels_last
tensorflow
7618 1855
(1, 499, 40, 1)
__________________________________________________________________________________________________
Layer (type)                    Output Shape         Param #     Connected to                     
==================================================================================================
input_1 (InputLayer)            (None, 499, 40, 1)   0                                            
__________________________________________________________________________________________________
conv2d_1 (Conv2D)               (None, 499, 40, 128) 1280        input_1[0][0]                    
__________________________________________________________________________________________________
activation_1 (Activation)       (None, 499, 40, 128) 0           conv2d_1[0][0]                   
__________________________________________________________________________________________________
max_pooling2d_1 (MaxPooling2D)  (None, 499, 8, 128)  0           activation_1[0][0]               
__________________________________________________________________________________________________
conv2d_2 (Conv2D)               (None, 499, 8, 128)  147584      max_pooling2d_1[0][0]            
__________________________________________________________________________________________________
activation_2 (Activation)       (None, 499, 8, 128)  0           conv2d_2[0][0]                   
__________________________________________________________________________________________________
max_pooling2d_2 (MaxPooling2D)  (None, 499, 2, 128)  0           activation_2[0][0]               
__________________________________________________________________________________________________
conv2d_3 (Conv2D)               (None, 499, 2, 128)  147584      max_pooling2d_2[0][0]            
__________________________________________________________________________________________________
activation_3 (Activation)       (None, 499, 2, 128)  0           conv2d_3[0][0]                   
__________________________________________________________________________________________________
max_pooling2d_3 (MaxPooling2D)  (None, 499, 1, 128)  0           activation_3[0][0]               
__________________________________________________________________________________________________
reshape_1 (Reshape)             (None, 499, 128)     0           max_pooling2d_3[0][0]            
__________________________________________________________________________________________________
permute_1 (Permute)             (None, 128, 499)     0           reshape_1[0][0]                  
__________________________________________________________________________________________________
dense_1 (Dense)                 (None, 128, 499)     249500      permute_1[0][0]                  
__________________________________________________________________________________________________
dim_reduction (Lambda)          (None, 499)          0           dense_1[0][0]                    
__________________________________________________________________________________________________
repeat_vector_1 (RepeatVector)  (None, 128, 499)     0           dim_reduction[0][0]              
__________________________________________________________________________________________________
attention_vec (Permute)         (None, 499, 128)     0           repeat_vector_1[0][0]            
__________________________________________________________________________________________________
attention_mul (Merge)           (None, 499, 128)     0           reshape_1[0][0]                  
                                                                 attention_vec[0][0]              
__________________________________________________________________________________________________
bidirectional_1 (Bidirectional) (None, 512)          788480      attention_mul[0][0]              
__________________________________________________________________________________________________
dense_2 (Dense)                 (None, 41)           21033       bidirectional_1[0][0]            
==================================================================================================
Total params: 1,355,461
Trainable params: 1,355,461
Non-trainable params: 0
__________________________________________________________________________________________________
None
Epoch 1/100

  1/119 [..............................] - ETA: 28:05 - loss: 3.7040 - categorical_accuracy: 0.0312
…
